…
   "execution_count": 22,
   "metadata": {},
   "outputs": [],
   "source": [
    "model.compile(loss=\"mse\", optimizer=SGD(lr=0.05),\n",
    "              metrics=['accuracy'])"
   ]
  },
  {
   "cell_type": "code",
   "execution_count": 23,
   "metadata": {},
   "outputs": [
    {
     "name": "stdout",
     "output_type": "stream",
     "text": [
      "_________________________________________________________________\n",
      "Layer (type)                 Output Shape              Param #   \n",
      "=================================================================\n",
      "conv2d_1 (Conv2D)            (None, 28, 28, 8)         80        \n",
      "_________________________________________________________________\n",
      "conv2d_2 (Conv2D)            (None, 28, 28, 8)         584       \n",
      "_________________________________________________________________\n",
      "max_pooling2d_1 (MaxPooling2 (None, 14, 14, 8)         0         \n",
      "_________________________________________________________________\n",
      "conv2d_3 (Conv2D)            (None, 14, 14, 16)        1168      \n",
      "_________________________________________________________________\n",
      "conv2d_4 (Conv2D)            (None, 14, 14, 16)        2320      \n",
      "_________________________________________________________________\n",
      "max_pooling2d_2 (MaxPooling2 (None, 7, 7, 16)          0         \n",
      "_________________________________________________________________\n",
      "conv2d_5 (Conv2D)            (None, 7, 7, 32)          4640      \n",
      "_________________________________________________________________\n",
      "conv2d_6 (Conv2D)            (None, 7, 7, 32)          9248      \n",
      "_________________________________________________________________\n",
      "max_pooling2d_3 (MaxPooling2 (None, 3, 3, 32)          0         \n",
      "_________________________________________________________________\n",
      "flatten_1 (Flatten)          (None, 288)               0         \n",
      "_________________________________________________________________\n",
      "dense_1 (Dense)              (None, 256)               73984     \n",
      "_________________________________________________________________\n",
      "dense_2 (Dense)              (None, 256)               65792     \n",
      "_________________________________________________________________\n",
      "dense_3 (Dense)              (None, 10)                2570      \n",
      "=================================================================\n",
      "Total params: 160,386\n",
      "Trainable params: 160,386\n",
      "Non-trainable params: 0\n",
      "_________________________________________________________________\n"
     ]
    }
   ],
   "source": [
    "model.summary()"
   ]
  },
  {
   "cell_type": "code",
   "execution_count": 24,
   "metadata": {},
…
